model/model.pth (torch, 16799 bytes, 4 tensors)

linear1.weight f4 [256, 11]
-0.18177637 0.28808153 -0.07749985 -0.2543576 -0.0120077785 -0.15560584 -0.38418856 0.2006311
-0.017886871 -0.1504109 0.10607469 0.34459972 0.34569445 -0.032999 -0.24207598 -0.14839944
-0.17712194 0.14683454 0.5016576 0.41036776 0.45216846 0.085823394 -0.1754838 -0.39216542
0.2787189 -0.021541608 -0.476958 -0.13350935 0.4575945 -0.08836176 0.3513648 0.050936278
-0.46577653 -0.26223317 0.117238015 0.0024203009 -0.035348147 0.10379436 -0.08458002 0.07507389
0.020878412 -0.020211577 -0.038692877 -0.038611926 -0.0918799 -0.15266578 0.26018697 0.026900316
-0.20809425 0.100427724 -0.2510996 -0.25506455 0.13024136 -0.24987549 -0.16136047 0.45513305
-0.4572919 -0.44426844 0.10504885 0.12953386 -0.29353273 0.22863698 -0.18567194 -0.11202518
0.3893764 0.027193494 -0.040408306 0.5912955 -0.34448016 -0.20817864 0.09973057 0.059086844
0.06468144 -0.70442986 -0.6108926 0.18023892 0.20534876 -0.72319615 0.48106784 0.14163513
-0.38085315 0.15400249 0.1543519 -0.3061189 -0.40295127 -0.08231367 -0.041183643 -0.4642278
-0.1761872 -0.19374716 -0.19079705 -0.16983165 -0.18478474 0.121897146 -0.23684774 -0.28057423
-0.1401243 -0.21259786 0.12495477 0.13938175 -0.015789995 0.06382976 0.015129657 -0.32621524
-0.25135592 -0.28491053 -0.09892819 0.36802366 0.2833529 0.31834692 -0.39800987 -0.114161365
0.3541313 -0.36831364 0.090824276 0.032764215 0.20965533 -0.6958797 -0.15243706 -0.019957364
-0.13560387 -0.35942665 0.14248152 0.6022144 -0.090491526 0.08634704 -0.3879995 0.117855325
0.23935346 0.049420986 -0.20755081 -0.063452154 -0.02750103 -0.4079081 0.03590044 0.0034459927
0.10794495 0.044160444 0.16967878 -0.12234891 0.12479251 0.06707693 0.012525985 0.08815087
-0.003575178 0.20838371 -0.19960496 -0.022773247 -0.24093747 -0.121558174 -0.21499836 -0.18628542
-0.39103335 -0.037291117 -0.08821824 -0.124773666 -0.17682517 -0.24305311 -0.09517722 -0.14614251
-0.19296756 -0.29198477 0.038985733 0.14195941 -0.031895727 -0.37195548 0.38408607 0.30781198
-0.16539249 -0.1756271 -0.07443301 0.009974586 0.21413365 0.05763152 -0.14846484 -0.14447494
0.07627849 -0.86030453 0.25008848 0.08634712 -0.4242643 -0.19431622 0.0642681 -0.18131508
0.51413107 0.25408155 0.0020035808 0.12678035 0.021236464 -0.18713327 -0.15756601 0.096901625
0.20267554 -0.01863537 -0.22844064 -0.14211845 -0.2806834 -0.115756206 -0.2389604 0.041449662
-0.2265792 -0.038567234 -0.19734482 -0.2960014 -0.12602171 -0.036735505 -0.26918975 0.20552327
0.051652193 -0.47543043 -0.76532745 0.34647205 0.08307346 -0.090365104 0.22995853 -0.009270915
0.14954926 0.48169157 0.15441836 0.37890777 0.13571168 -0.23042658 0.1971329 -0.30384877
-0.22629063 -0.3327402 0.16227002 0.08555641 0.3495764 -0.32784078 -0.02138026 0.7928694
-0.3111654 -0.35380358 0.2129142 -0.26944104 0.38040525 0.14308402 0.045437805 0.33882535
-0.3335363 -0.033632748 -0.22959039 0.20904842 0.3850613 -0.34768793 -0.5347226 0.20339061
0.03776942 -0.68807566 -0.13986938 0.20789778 0.2987039 0.068838514 -0.4167138 -0.26618698
00000000: 9623 3abe 6c7f 933e 3eb8 9ebd 293b 82be
00000010: 46bc 44bc 2357 1fbe 5db4 c4be 3d72 4d3e
00000020: 7d87 92bc 5105 1abe b03d d93d 606f b03e
00000030: ddfe b03e f629 07bd c4e2 77be 06f6 17be
00000040: 745f 35be cb5b 163e a26c 003f b91b d23e
00000050: a082 e73e 2dc4 af3d 06b2 33be e8c9 c8be
00000060: 3eb4 8e3e 0778 b0bc d733 f4be adb6 08be
00000070: d449 ea3e 03f7 b4bd 16e6 b33e 8fa2 503d
00000080: 437a eebe 6d43 86be 7c1a f03d e99d 1e3b
00000090: 38c9 10bd 2392 d43d 4a38 adbd 57c0 993d
000000a0: 3409 ab3c c092 a5bc 6c7c 1ebd 8a27 1ebd
000000b0: 872b bcbd 6b54 1cbe 3a37 853e 0d5e dc3c
000000c0: a916 55be 0dad cd3d 2090 80be d297 82be
000000d0: fe5d 053e 5cdf 7fbe ae3b 25be 3307 e93e
000000e0: 2a22 eabe 2777 e3be da23 d73d 86a4 043e
000000f0: ec49 96be d01f 6a3e c920 3ebe 756d e5bd
00000100: 585c c73e e4c4 de3c 2e83 25bd 245f 173f
00000110: b45f b0be c82c 55be 8b3f cc3d 0c05 723d
00000120: b477 843d 8455 34bf 7563 1cbf 8d90 383e
00000130: f246 523e 6223 39bf 864e f63e cd08 113e
00000140: 2fff c2be d4b2 1d3e 6d0e 1e3e 9ebb 9cbe
00000150: a14f cebe 1294 a8bd 2eb0 28bd 44af edbe
00000160: 6b6a 34be a865 46be 4d60 43be 59e8 2dbe
00000170: 3638 3dbe 36a5 f93d 3788 72be 6da7 8fbe
00000180: bf7c 0fbe 41b3 59be 49e8 ff3d 17ba 0e3e
00000190: 055a 81bc 2db9 823d 62e2 773c af05 a7be
000001a0: b9b1 80be cbdf 91be dd9a cabd 996d bc3e
000001b0: a213 913e 5efe a23e f3c7 cbbe 6fcd e9bd
000001c0: b350 b53e 9b93 bcbe 1402 ba3d c533 063d
000001d0: e3af 563e 2c25 32bf 7618 1cbe a07d a3bc
000001e0: bedb 0abe c506 b8be ade6 113e b92a 1a3f
000001f0: 9f53 b9bd b8d6 b03d dfa7 c6be 225e f13d
00000200: 1319 753e a96d 4a3d 3388 54be 34f3 81bd
00000210: d749 e1bc 55d9 d0be 570c 133d 2ad6 613b
00000220: 3e12 dd3d 95e1 343d 46c0 2d3e 1192 fabd
00000230: 3793 ff3d a15f 893d ca39 4d3c 7188 b43d
00000240: 894d 6abb 8a62 553e 3e65 4cbe f68e babc
00000250: 50b8 76be 7ef3 f8bd 8828 5cbe 9bc1 3ebe
00000260: 8635 c8be 92be 18bd c4ab b4bd 5689 ffbd
00000270: a811 35be eae2 78be 46ec c2bd 62a6 15be
00000280: 4a99 45be 077f 95be 81af 1f3d cf5d 113e
00000290: 18a5 02bd f370 bebe eea6 c43e 8899 9d3e
000002a0: a65c 29be 97d7 33be 5570 98bd 726c 233c
000002b0: da45 5b3e 070f 6c3d 2b07 18be 3df1 13be
000002c0: e637 9c3d eb3c 5cbf 990b 803e c2d6 b03d
000002d0: 2c39 d9be d5fa 46be fe9e 833d a9aa 39be
000002e0: 189e 033f fa16 823e 824e 033b b5d2 013e
000002f0: 18f8 ad3c dd9f 3fbe fc58 21be 5c74 c63d
00000300: 2d8a 4f3e 34a9 98bc 58ec 69be 8087 11be
00000310: bcb5 8fbe 9711 edbd 09b2 74be 1fc7 293d
00000320: 6104 68be adf8 1dbd c314 4abe 7f8d 97be
00000330: d60b 01be f877 16bd 3dd3 89be b174 523e
00000340: 4091 533d 9e6b f3be 80ec 43bf c964 b13e
00000350: 6b22 aa3d 5711 b9bd 407a 6b3e 09e5 17bc
00000360: 7123 193e 47a0 f63e d91f 1e3e 3300 c23e
00000370: 01f8 0a3e f2f4 6bbe 35dd 493e 1192 9bbe
00000380: bbb8 67be ec5c aabe 1d2a 263e 3338 af3d
00000390: aefb b23e bfda a7be a825 afbc 7df9 4a3f
000003a0: 1251 9fbe be25 b5be 2e06 5a3e 2df4 89be
000003b0: 7ac4 c23e 9e84 123e fe1c 3a3d 847a ad3e
000003c0: 45c5 aabe 7ec2 09bd be19 6bbe ca10 563e
000003d0: c126 c53e 2704 b2be 95e3 08bf a145 503e
000003e0: 1bb4 1a3d ba25 30bf eb39 0fbe 28e3 543e
000003f0: b8ef 983e 35fb 8c3d 835b d5be a949 88be

linear1.bias f4 [256]
-0.12830968 -0.28300434 0.0057752207 -0.39161915 -0.16668287 -0.26759392 0.24989273 0.26032183
-0.24936949 -0.118745826 0.6644218 0.1403206 -0.39979747 -0.27570432 -0.09278375 0.21354002
-0.08970965 -0.21870038 -0.23388435 -0.41269475 -0.17016016 -0.0761147 -0.095262416 0.11165742
-0.028727498 -0.18348871 0.10547118 -0.17919461 -0.13592875 0.07716901 -0.11288515 -0.08181221
0.08410991 -0.05224161 -0.33474478 -0.20674357 -0.16188931 -0.2751132 -0.37201777 0.13946284
-0.25980732 0.0110663595 0.014006718 -0.075896256 -0.30961463 0.10600365 -0.18939899 -0.1894289
-0.043617375 0.017630944 -0.38127556 -0.015428768 0.06514255 0.058266543 0.08581026 -0.1123539
0.17179392 -0.024321225 -0.122747324 0.19500725 -0.32894704 0.086012706 0.1266217 0.09757145
0.06313527 -0.2403802 -0.02507827 -0.2324941 -0.034347493 -0.16036145 0.14392611 -0.089792505
-0.004677909 -0.05565117 0.35287887 -0.2991666 -0.16889918 0.4913397 -0.118004665 -0.15908913
-0.1766505 -0.16024607 -0.054944392 0.03590977 0.24937594 -0.2063334 -0.2273457 -0.048809152
-0.12752849 -0.23187092 -0.1379452 -0.23638423 -0.0010522611 0.34016606 -0.35828096 0.25700963
-0.04241628 -0.1260769 -0.30447647 -0.34098914 0.16329987 0.04086845 -0.1178146 0.11969634
0.03388369 0.0386939 -0.26891622 -0.31853655 -0.28407803 0.051837046 -0.33090258 0.267044
-0.030912008 0.19821726 -0.32991293 -0.31652236 -0.22184904 0.63077223 -0.022793291 -0.24217318
-0.3945189 -0.004255458 0.20916122 0.5658507 -0.060634557 -0.3630106 -0.3902751 -0.25784078
0.10509004 -0.036019094 -0.33159283 -0.03162013 0.22501735 -0.29342014 -0.37857372 -0.07030809
0.0656166 -0.21433568 -0.029489493 0.06704531 0.06058698 0.21135005 -0.0731597 -0.0476186
0.06215512 0.1204374 -0.03166445 -0.11670798 0.0542901 -0.15967464 0.5213373 -0.14755197
0.037723955 -0.3244151 -0.091294155 -0.13485917 0.043902844 0.22383541 0.39106423 0.051658742
-0.037568413 -0.214211 0.100770935 -0.30239847 -0.09551453 -0.38166967 -0.23491229 0.044500545
0.13704476 -0.23588338 -0.40851203 0.64854133 -0.2065921 -0.1417806 -0.15344852 -0.121899955
-0.11132114 -0.09705876 0.08215213 -0.3482791 -0.20860286 -0.05855803 -0.01594913 -0.074743785
0.015633594 -0.2781442 -0.28588113 0.2940878 0.00418788 -0.024386277 -0.1289726 -0.37148407
-0.14814684 0.011758175 -0.27948108 -0.25441492 -0.045069598 -0.08773658 -0.2541835 -0.032200303
0.06831477 -0.09096528 -0.4111285 -0.09636461 -0.25103977 0.16379602 -0.15901832 -0.20370036
-0.31016606 -0.054399576 -0.33980122 -0.22796647 0.16306666 -0.15138863 0.16835698 -0.05958003
0.7535513 -0.2670177 -0.06656604 -0.37163413 0.2584568 -0.2321628 -0.11160201 0.16768034
-0.28287867 -0.22299546 -0.13352704 0.12938191 -0.20524703 -0.035246283 0.29318497 -0.24690151
-0.16265532 -0.1885347 -0.10968887 -0.074299246 0.34385565 0.14767027 0.098982565 -0.08071149
-0.09676366 -0.2642767 -0.14773425 -0.019679872 -0.14550865 -0.025882293 -0.15492003 0.33426076
-0.11217147 0.17967752 -0.32846618 -0.019369755 -0.06925986 0.024120824 -0.31332245 0.025989767
00000000: 9d63 03be f2e5 90be 103e bd3b 4e82 c8be
00000010: eaae 2abe 1202 89be e1e3 7f3e e748 853e
00000020: b75a 7fbe 0331 f3bd 8c17 2a3f 34b0 0f3e
00000030: 41b2 ccbe 1e29 8dbe 6805 bebd 3caa 5a3e
00000040: b1b9 b7bd fef2 5fbe 617f 6fbe ba4c d3be
00000050: 773e 2ebe 06e2 9bbd f118 c3bd a5ac e43d
00000060: ee55 ebbc 77e4 3bbe 4601 d83d cb7e 37be
00000070: e830 0bbe c90a 9e3d 5430 e7bd 298d a7bd
00000080: d141 ac3d 4cfb 55bd ab63 abbe 96b4 53be
00000090: 50c6 25be a3db 8cbe 1d79 bebe 59cf 0e3e
000000a0: 7705 85be ad4f 353c 6f7c 653c 7f6f 9bbd
000000b0: cf85 9ebe 7118 d93d cff1 41be a6f9 41be
000000c0: 22a8 32bd c56e 903c 8d36 c3be f1c8 7cbc
000000d0: 7569 853d e6a8 6e3d 4abd af3d cd19 e6bd
000000e0: bfea 2f3e 4e3d c7bc f362 fbbd fbaf 473e
000000f0: bf6b a8be 6e27 b03d 1ea9 013e 8ad3 c73d
00000100: 104d 813d 3a26 76be f270 cdbc ef12 6ebe
00000110: f5af 0cbd cb35 24be 5e61 133e 22e5 b7bd
00000120: 2549 99bb 7bf2 63bd 8aac b43e 5d2c 99be
00000130: e8f3 2cbe e190 fb3e 6eac f1bd 43e8 22be
00000140: dee3 34be 8c17 24be 5f0d 61bd 1f16 133d
00000150: 685c 7f3e 1049 53be 50cd 68be 1bec 47bd
00000160: d496 02be 926f 6dbe 8241 0dbe b50e 72be
00000170: 06ec 89ba 3f2a ae3e 9a70 b7be c496 833e
00000180: b1bc 2dbd 4e1a 01be 57e4 9bbe 2196 aebe
00000190: 1538 273e ad65 273d c848 f1bd 5b23 f53d
000001a0: a0c9 0a3d 7f7d 1e3d 63af 89be 3917 a3be
000001b0: ad72 91be 1553 543d 106c a9be feb9 883e
000001c0: 2e3b fdbc 77f9 4a3e 59ea a8be 380f a2be
000001d0: 652c 63be 4a7a 213f ffb8 babc 3ffc 77be
000001e0: 62fe c9be 5e71 8bbb 5c2e 563e 97db 103f
000001f0: f15b 78bd 86dc b9be 23d2 c7be b503 84be
00000200: 7239 d73d c288 13bd 89c6 a9be 1c84 01bd
00000210: f36a 663e 2a3b 96be 6ad4 c1be b0fd 8fbd
00000220: ff61 863d d07a 5bbe f393 f1bc 0d4f 893d
00000230: 0e2a 783d 266c 583e c1d4 95bd b90b 43bd
00000240: 5e96 7e3d e2a7 f63d 95b2 01bd 9804 efbd
00000250: 4c5f 5e3d c081 23be 5c76 053f dd17 17be
00000260: 6f84 1a3d bc19 a6be 6ef8 babd 8618 0abe
00000270: 78d3 333d 1c35 653e 9239 c83e 1e98 533d
00000280: 56e1 19bd 215a 5bbe fe60 ce3d f9d3 9abe
00000290: 1f9d c3bd 356a c3be d98c 70be 3446 363d
000002a0: 7655 0c3e 6a8b 71be 7d28 d1be ce06 263f
000002b0: e18c 53be ef2e 11be 9c21 1dbe afa6 f9bd
000002c0: 56fc e3bd bec6 c6bd 603f a83d a351 b2be
000002d0: fd9b 55be 8bda 6fbd c0a7 82bc 4513 99bd
000002e0: 0612 803c eb68 8ebe 035f 92be ad92 963e
000002f0: 7c3a 893b bbc5 c7bc 6511 04be 2933 bebe
00000300: ceb3 17be 5ca5 403c 2518 8fbe ac42 82be
00000310: e69a 38bd 3caf b3bd 5724 82be 77e4 03bd
00000320: 9de8 8b3d 014c babd 6f7f d2be cf5a c5bd
00000330: 4988 80be 25ba 273e b3d5 22be d496 50be
00000340: 16ce 9ebe 17d2 5ebd 6dfa adbe 0b70 69be
00000350: f2fa 263e 9f05 1bbe c665 2c3e 310a 74bd
00000360: bde8 403f 8bb6 88be c753 88bd d446 bebe
00000370: 7354 843e 16bc 6dbe 988f e4bd 65b4 2b3e
00000380: 79d5 90be ec58 64be 50bb 08be b17c 043e
00000390: 472c 52be 685e 10bd 571c 963e c0d3 7cbe
000003a0: 1e8f 26be 3e0f 41be 8fa4 e0bd 342a 98bd
000003b0: d90d b03e e036 173e 5fb7 ca3d 114c a5bd
000003c0: 072c c6bd 474f 87be a647 17be af37 a1bc
000003d0: 3800 15be 1a07 d4bc 5ba3 1ebe 3a24 ab3e
000003e0: 28ba e5bd 62fd 373e b82c a8be 52ad 9ebc
000003f0: 1dd8 8dbd 0999 c53c cd6b a0be 7ee8 d43c

linear2.weight f4 [3, 256]
0.036904626 -0.26724055 -0.18120766 -0.029376442 -0.029587466 -0.07846628 0.23651356 0.2198595
0.0038148868 -0.06128404 0.525516 0.09073808 -0.017036285 -0.020354215 -0.008644592 0.039430887
-0.25164065 -0.025594372 0.075744726 -0.20260333 -0.082490675 -0.14725663 0.23467854 0.08148022
0.44480696 -0.6518121 0.2902017 0.04652528 -0.016128525 0.20132878 -0.087712176 -0.09590521
0.16783966 -0.12442298 0.0033501475 0.0032979227 0.15396051 -0.028562732 -0.020146644 0.0110746715
-0.02083376 -0.2196615 -0.12675592 0.042330876 0.014525095 -0.00048615405 -0.0028561591 -0.024629313
-0.017613346 0.06189745 -0.0003495478 -0.14185458 -0.2180594 -0.0137322415 -0.09567488 -0.09974731
0.12624969 0.22098868 -0.087490015 0.49391136 0.109266765 0.07090469 0.4292724 0.14223637
0.15828614 -0.10829256 0.3163156 -0.119426996 0.010717973 -0.024861915 0.0318689 -0.21923465
0.40604922 -0.25566357 0.23135513 0.016442638 0.15406121 0.29561952 -0.024735415 -0.3703578
-0.025694616 -0.0299674 0.012880412 -0.14045319 0.111758575 -0.07198514 -0.018912742 -0.013141441
-0.112329215 -0.4069757 -0.07620928 -0.10265909 -0.037603144 0.35781732 -0.20880994 0.08410625
0.012259884 -0.10701536 -0.010522713 0.080829725 0.16650808 0.09745418 -0.13888022 0.017552715
0.33010423 -0.02082289 -0.3123035 0.0016011157 0.012022993 0.03132502 0.00045939846 0.18833344
-0.1493849 0.28718576 -0.014603861 -0.06347005 0.014667498 0.3150079 0.28431672 -0.07542032
-0.043854438 0.005250416 0.24553254 0.53526425 -0.111699566 -0.027455807 -0.108218946 -0.042375315
-0.13604634 0.08799982 -0.28643957 -0.092650995 0.22549473 0.016417608 0.034542233 0.22296654
0.40926972 -0.02654594 -0.4655086 0.41401932 0.06203036 0.41558245 -0.15587766 -0.2559266
-0.005135163 0.258077 -0.20538023 -0.1285329 0.015397502 -0.09569458 0.40889233 0.016853444
-0.067592956 -0.01919246 -0.021190982 -0.02248469 0.09423442 0.0068606716 0.31573623 0.11894411
-0.282075 -0.007717578 0.05869087 -0.27938154 0.2582569 -0.43943772 -0.372128 0.12694916
0.24097253 -0.11287438 -0.18316317 0.36944473 -0.14163087 -0.13108678 0.10326617 -0.082879275
-0.15330954 0.0034438246 0.2315277 -0.023584662 -0.039284147 -0.5076946 0.008123848 -0.016880304
-0.031108588 -0.13756922 -0.09977757 0.21402584 -0.10484671 -0.037323397 0.10978996 -0.16282935
0.29671267 -0.06449611 -0.11377606 -0.025176467 -0.3181624 -0.37764323 0.014927199 -0.078353696
0.46057478 -0.07710453 -0.19236246 -0.14385301 -0.03325072 0.13088642 -0.04182704 -0.008474735
-0.021618307 0.0051776506 -0.15958409 -0.18219557 0.0901363 -0.10679171 0.24184586 0.029973608
0.20724872 -0.07786645 -0.3724522 -0.13064551 0.058321346 -0.085423015 -0.1768194 0.32637882
-0.12269957 0.27871934 -0.104792885 0.27332848 -0.39060128 0.16198178 0.35185662 -0.03213111
0.0021954407 -0.119957894 0.01995837 0.13733636 0.14068173 -0.11501044 0.13296425 -0.064478606
-0.14448161 -0.06946614 -0.17295736 0.48384902 -0.058009896 -0.34506607 -0.4618878 0.3012942
-0.40085164 0.2383254 -0.16921328 -0.037689365 -0.08135805 -0.18254343 -0.15931687 -0.16031945
00000000: 4e29 173d c1d3 88be 808e 39be dda6 f0bc
00000010: 6a61 f2bc eeb2 a0bd 9c30 723e d922 613e
00000020: 2e03 7a3b f904 7bbd 3788 063f e3d4 b93d
00000030: ae8f 8bbc e2bd a6bc 0ca2 0dbc 4882 213d
00000040: 0bd7 80be 4aab d1bc 0d20 9b3d 3f77 4fbe
00000050: dff0 a8bd 71ca 16be 924f 703e 1adf a63d
00000060: bdbd e33e 28dd 26bf 5195 943e 4b91 3e3d
00000070: f81f 84bc 2229 4e3e 71a2 b3bd f369 c4bd
00000080: 29de 2b3e 7ad1 febd 268e 5b3b f621 583b
00000090: d3a7 1d3e 64fc e9bc 930a a5bc 8a72 353c
000000a0: 90ab aabc f2ee 60be 4ecc 01be 2463 2d3d
000000b0: aafa 6d3c 7ee2 feb9 662e 3bbb 6ac3 c9bc
000000c0: dd49 90bc 2e88 7d3d 8343 b7b9 5442 11be
000000d0: f74a 5fbe 32fd 60bc 31f1 c3bd 5148 ccbd
000000e0: 9947 013e db4a 623e f72d b3bd f3e1 fc3e
000000f0: 41c7 df3d 7a36 913d 98c9 db3e 69a6 113e
00000100: c315 223e 7dc8 ddbd 1ef4 a13e 2496 f4bd
00000110: 709a 2f3c 37ab cbbc f788 023d 0c7f 60be
00000120: afe5 cf3e 56e6 82be 5ce8 6c3e b6b2 863c
00000130: 39c2 1d3e 715b 973e eda1 cabc 8a9f bdbe
00000140: 847d d2bc 317e f5bc 5d08 533c f6d2 0fbe
00000150: aee1 e43d f26c 93bd e5ee 9abc 334f 57bc
00000160: dc0c e6bd 1e5f d0be 9c13 9cbd ee3e d2bd
00000170: c105 1abd d533 b73e 46d2 55be e63f ac3d
00000180: aedd 483c de2a dbbd 7567 2cbc 0e8a a53d
00000190: 1881 2a3e 0f96 c73d 9e36 0ebe b6ca 8f3c
000001a0: 6c03 a93e c494 aabc 3fe6 9fbe 87dc d13a
000001b0: 16fc 443c aa4e 003d 6bdb f039 7bda 403e
000001c0: 5bf8 18be 030a 933e 0845 6fbc 96fc 81bd
000001d0: f24f 703c b748 a13e f691 913e f875 9abd
000001e0: b6a0 33bd af0b ac3b e26c 7b3e 1407 093f
000001f0: bec2 e4bd 00eb e0bc e5a1 ddbd bd91 2dbd
00000200: bb4f 0bbe 4039 b43d 35a8 92be cebf bdbd
00000210: 17e8 663e 387e 863c 287c 0d3d 5751 643e
00000220: cd8b d13e df76 d9bc 2557 eebe 57fa d33e
00000230: 8c13 7e3d 39c7 d43e 659e 1fbe d008 83be
00000240: df44 a8bb ab22 843e 324f 52be 219e 03be
00000250: ce45 7c3c 85fb c3bd 565a d13e 3c10 8a3c
00000260: 2d6e 8abd 8239 9dbc b698 adbc d031 b8bc
00000270: fafd c03d 7ccf e03b 2ea8 a13e f898 f33d
00000280: 226c 90be bde3 fcbb d665 703d 190b 8fbe
00000290: 403a 843e fbfd e0be 9087 bebe f6fe 013e
000002a0: 81c1 763e af2a e7bd 208f 3bbe dc27 bd3e
000002b0: af07 11be 9d3b 06be 377d d33d 9cbc a9bd
000002c0: 2dfd 1cbe cab1 613b 9915 6d3e 9f34 c1bc
000002d0: 6ae8 20bd 46f8 01bf e319 053c 9048 8abc
000002e0: 70d7 febc f2de 0cbe 2f58 ccbd 9729 5b3e
000002f0: dfb9 d6bd 6be0 18bd 8fd9 e03d bdbc 26be
00000300: b9ea 973e 8916 84bd 6c03 e9bd e13e cebc
00000310: 2fe6 a2be 745a c1be 3691 743c e777 a0bd
00000320: 75d0 eb3e fbe8 9dbd aafa 44be 344e 13be
00000330: e831 08bd 1707 063e d552 2bbd 9dd9 0abc
00000340: e018 b1bc 48a9 a93b 036a 23be 7a91 3abe
00000350: 6199 b83d 9db5 dabd 71a6 773e 368b f53c
00000360: 0239 543e 7278 9fbd 0eb2 bebe f0c7 05be
00000370: 5de2 6e3d 43f2 aebd 2510 35be 201b a73e
00000380: ea49 fbbd 4db4 8e3e a79d d6bd b6f1 8b3e
00000390: e4fc c7be 8dde 253e 8d26 b43e e99b 03bd
000003a0: 62e1 0f3b 7cac f5bd bc7f a33c e7a1 0c3e
000003b0: df0e 103e 988a ebbd c827 083e 5c0d 84bd
000003c0: fdf2 13be 4344 8ebd bc1b 31be 0fbb f73e
000003d0: c99b 6dbd 80ac b0be 8f7c ecbe 3c43 9a3e
000003e0: 6d3c cdbe 930b 743e 3f46 2dbe 2a60 1abd
000003f0: 0d9f a6bd aaec 3abe f623 23be c82a 24be

linear2.bias f4 [3]
0.27711892 -0.07630604 -0.05173239
00000000: 88e2 8d3e 5746 9cbd 58e5 53bd
